…
    G_scheduler_restart_weights: 1
  ]
  opt_path: options/train_swinir_multi_card_32.json
  is_train: True
  merge_bn: False
  merge_bn_startpoint: -1
  scale: 1
  find_unused_parameters: True
  use_static_graph: False
  num_gpu: 4
  nranks: 4

22-09-02 11:12:13.100 : Number of train images: 8,694, iters: 4,347
22-09-02 11:12:14.245 : 
Networks name: SwinIR
Params number: Tensor(shape=[1], dtype=int64, place=Place(gpu:0), stop_gradient=False,
       [11504163])
Net structure:
SwinIR(
  (conv_first): Conv2D(3, 180, kernel_size=[3, 3], padding=1, data_format=NCHW)
  (patch_embed): PatchEmbed(
    (norm): LayerNorm(normalized_shape=[180], epsilon=1e-05)
  )
  (patch_unembed): PatchUnEmbed()
  (pos_drop): Dropout(p=0.0, axis=None, mode=upscale_in_train)
  (layers): LayerList(
    (0): RSTB(
      (residual_group): BasicLayer(dim=180, input_resolution=(128, 128), depth=6
        (blocks): LayerList(
          (0): SwinTransformerBlock(dim=180, input_resolution=(128, 128), num_heads=6, window_size=8, shift_size=0, mlp_ratio=2
            (norm1): LayerNorm(normalized_shape=[180], epsilon=1e-05)
            (attn): WindowAttention(dim=180, window_size=(8, 8), num_heads=6
              (qkv): Linear(in_features=180, out_features=540, dtype=float32)
              (attn_dropout): Dropout(p=0.0, axis=None, mode=upscale_in_train)
              (proj): Linear(in_features=180, out_features=180, dtype=float32)
              (proj_dropout): Dropout(p=0.0, axis=None, mode=upscale_in_train)
              (softmax): Softmax(axis=-1)
            )
            (drop_path): Identity()
            (norm2): LayerNorm(normalized_shape=[180], epsilon=1e-05)
            (mlp): Mlp(
              (fc1): Linear(in_features=180, out_features=360, dtype=float32)
              (fc2): Linear(in_features=360, out_features=180, dtype=float32)
              (act): GELU(approximate=False)
              (dropout): Dropout(p=0.0, axis=None, mode=upscale_in_train)
            )
          )
          (1): SwinTransformerBlock(dim=180, input_resolution=(128, 128), num_heads=6, window_size=8, shift_size=4, mlp_ratio=2
            (norm1): LayerNorm(normalized_shape=[180], epsilon=1e-05)
            (attn): WindowAttention(dim=180, window_size=(8, 8), num_heads=6
              (qkv): Linear(in_features=180, out_features=540, dtype=float32)
              (attn_dropout): Dropout(p=0.0, axis=None, mode=upscale_in_train)
              (proj): Linear(in_features=180, out_features=180, dtype=float32)
              (proj_dropout): Dropout(p=0.0, axis=None, mode=upscale_in_train)
              (softmax): Softmax(axis=-1)
            )
            (drop_path): DropPath()
            (norm2): LayerNorm(normalized_shape=[180], epsilon=1e-05)
            (mlp): Mlp(
              (fc1): Linear(in_features=180, out_features=360, dtype=float32)
              (fc2): Linear(in_features=360, out_features=180, dtype=float32)
              (act): GELU(approximate=False)
              (dropout): Dropout(p=0.0, axis=None, mode=upscale_in_train)
            )
          )
          (2): SwinTransformerBlock(dim=180, input_resolution=(128, 128), num_heads=6, window_size=8, shift_size=0, mlp_ratio=2
            (norm1): LayerNorm(normalized_shape=[180], epsilon=1e-05)
            (attn): WindowAttention(dim=180, window_size=(8, 8), num_heads=6
              (qkv): Linear(in_features=180, out_features=540, dtype=float32)
              (attn_dropout): Dropout(p=0.0, axis=None, mode=upscale_in_train)
              (proj): Linear(in_features=180, out_features=180, dtype=float32)
              (proj_dropout): Dropout(p=0.0, axis=None, mode=upscale_in_train)
              (softmax): Softmax(axis=-1)
            )
            (drop_path): DropPath()
            (norm2): LayerNorm(normalized_shape=[180], epsilon=1e-05)
            (mlp): Mlp(
              (fc1): Linear(in_features=180, out_features=360, dtype=float32)
              (fc2): Linear(in_features=360, out_features=180, dtype=float32)
              (act): GELU(approximate=False)
              (dropout): Dropout(p=0.0, axis=None, mode=upscale_in_train)
            )
          )
          (3): SwinTransformerBlock(dim=180, input_resolution=(128, 128), num_heads=6, window_size=8, shift_size=4, mlp_ratio=2
            (norm1): LayerNorm(normalized_shape=[180], epsilon=1e-05)
            (attn): WindowAttention(dim=180, window_size=(8, 8), num_heads=6
              (qkv): Linear(in_features=180, out_features=540, dtype=float32)
              (attn_dropout): Dropout(p=0.0, axis=None, mode=upscale_in_train)
              (proj): Linear(in_features=180, out_features=180, dtype=float32)
              (proj_dropout): Dropout(p=0.0, axis=None, mode=upscale_in_train)
              (softmax): Softmax(axis=-1)
            )
            (drop_path): DropPath()
            (norm2): LayerNorm(normalized_shape=[180], epsilon=1e-05)
            (mlp): Mlp(
              (fc1): Linear(in_features=180, out_features=360, dtype=float32)
              (fc2): Linear(in_features=360, out_features=180, dtype=float32)
              (act): GELU(approximate=False)
              (dropout): Dropout(p=0.0, axis=None, mode=upscale_in_train)
            )
          )
          (4): SwinTransformerBlock(dim=180, input_resolution=(128, 128), num_heads=6, window_size=8, shift_size=0, mlp_ratio=2
            (norm1): LayerNorm(normalized_shape=[180], epsilon=1e-05)
            (attn): WindowAttention(dim=180, window_size=(8, 8), num_heads=6
              (qkv): Linear(in_features=180, out_features=540, dtype=float32)
              (attn_dropout): Dropout(p=0.0, axis=None, mode=upscale_in_train)
              (proj): Linear(in_features=180, out_features=180, dtype=float32)
              (proj_dropout): Dropout(p=0.0, axis=None, mode=upscale_in_train)
              (softmax): Softmax(axis=-1)
            )
            (drop_path): DropPath()
            (norm2): LayerNorm(normalized_shape=[180], epsilon=1e-05)
            (mlp): Mlp(
              (fc1): Linear(in_features=180, out_features=360, dtype=float32)
              (fc2): Linear(in_features=360, out_features=180, dtype=float32)
              (act): GELU(approximate=False)
              (dropout): Dropout(p=0.0, axis=None, mode=upscale_in_train)
            )
          )
          (5): SwinTransformerBlock(dim=180, input_resolution=(128, 128), num_heads=6, window_size=8, shift_size=4, mlp_ratio=2
            (norm1): LayerNorm(normalized_shape=[180], epsilon=1e-05)
            (attn): WindowAttention(dim=180, window_size=(8, 8), num_heads=6
              (qkv): Linear(in_features=180, out_features=540, dtype=float32)
              (attn_dropout): Dropout(p=0.0, axis=None, mode=upscale_in_train)
              (proj): Linear(in_features=180, out_features=180, dtype=float32)
              (proj_dropout): Dropout(p=0.0, axis=None, mode=upscale_in_train)
              (softmax): Softmax(axis=-1)
            )
            (drop_path): DropPath()
            (norm2): LayerNorm(normalized_shape=[180], epsilon=1e-05)
            (mlp): Mlp(
              (fc1): Linear(in_features=180, out_features=360, dtype=float32)
              (fc2): Linear(in_features=360, out_features=180, dtype=float32)
              (act): GELU(approximate=False)
              (dropout): Dropout(p=0.0, axis=None, mode=upscale_in_train)
            )
          )
        )
      )
      (conv): Conv2D(180, 180, kernel_size=[3, 3], padding=1, data_format=NCHW)
      (patch_embed): PatchEmbed()
      (patch_unembed): PatchUnEmbed()
    )
    (1): RSTB(
      (residual_group): BasicLayer(dim=180, input_resolution=(128, 128), depth=6
        (blocks): LayerList(
          (0): SwinTransformerBlock(dim=180, input_resolution=(128, 128), num_heads=6, window_size=8, shift_size=0, mlp_ratio=2
            (norm1): LayerNorm(normalized_shape=[180], epsilon=1e-05)
            (attn): WindowAttention(dim=180, window_size=(8, 8), num_heads=6
              (qkv): Linear(in_features=180, out_features=540, dtype=float32)
              (attn_dropout): Dropout(p=0.0, axis=None, mode=upscale_in_train)
              (proj): Linear(in_features=180, out_features=180, dtype=float32)
              (proj_dropout): Dropout(p=0.0, axis=None, mode=upscale_in_train)
              (softmax): Softmax(axis=-1)
            )
            (drop_path): DropPath()
            (norm2): LayerNorm(normalized_shape=[180], epsilon=1e-05)
            (mlp): Mlp(
              (fc1): Linear(in_features=180, out_features=360, dtype=float32)
              (fc2): Linear(in_features=360, out_features=180, dtype=float32)
              (act): GELU(approximate=False)
              (dropout): Dropout(p=0.0, axis=None, mode=upscale_in_train)
            )
          )
          (1): SwinTransformerBlock(dim=180, input_resolution=(128, 128), num_heads=6, window_size=8, shift_size=4, mlp_ratio=2
            (norm1): LayerNorm(normalized_shape=[180], epsilon=1e-05)
            (attn): WindowAttention(dim=180, window_size=(8, 8), num_heads=6
              (qkv): Linear(in_features=180, out_features=540, dtype=float32)
              (attn_dropout): Dropout(p=0.0, axis=None, mode=upscale_in_train)
              (proj): Linear(in_features=180, out_features=180, dtype=float32)
              (proj_dropout): Dropout(p=0.0, axis=None, mode=upscale_in_train)
              (softmax): Softmax(axis=-1)
            )
            (drop_path): DropPath()
            (norm2): LayerNorm(normalized_shape=[180], epsilon=1e-05)
            (mlp): Mlp(
              (fc1): Linear(in_features=180, out_features=360, dtype=float32)
              (fc2): Linear(in_features=360, out_features=180, dtype=float32)
              (act): GELU(approximate=False)
              (dropout): Dropout(p=0.0, axis=None, mode=upscale_in_train)
            )
          )
          (2): SwinTransformerBlock(dim=180, input_resolution=(128, 128), num_heads=6, window_size=8, shift_size=0, mlp_ratio=2
            (norm1): LayerNorm(normalized_shape=[180], epsilon=1e-05)
            (attn): WindowAttention(dim=180, window_size=(8, 8), num_heads=6
              (qkv): Linear(in_features=180, out_features=540, dtype=float32)
              (attn_dropout): Dropout(p=0.0, axis=None, mode=upscale_in_train)
              (proj): Linear(in_features=180, out_features=180, dtype=float32)
              (proj_dropout): Dropout(p=0.0, axis=None, mode=upscale_in_train)
              (softmax): Softmax(axis=-1)
            )
            (drop_path): DropPath()
            (norm2): LayerNorm(normalized_shape=[180], epsilon=1e-05)
            (mlp): Mlp(
              (fc1): Linear(in_features=180, out_features=360, dtype=float32)
              (fc2): Linear(in_features=360, out_features=180, dtype=float32)
              (act): GELU(approximate=False)
              (dropout): Dropout(p=0.0, axis=None, mode=upscale_in_train)
            )
          )
          (3): SwinTransformerBlock(dim=180, input_resolution=(128, 128), num_heads=6, window_size=8, shift_size=4, mlp_ratio=2
            (norm1): LayerNorm(normalized_shape=[180], epsilon=1e-05)
            (attn): WindowAttention(dim=180, window_size=(8, 8), num_heads=6
              (qkv): Linear(in_features=180, out_features=540, dtype=float32)
              (attn_dropout): Dropout(p=0.0, axis=None, mode=upscale_in_train)
              (proj): Linear(in_features=180, out_features=180, dtype=float32)
              (proj_dropout): Dropout(p=0.0, axis=None, mode=upscale_in_train)
              (softmax): Softmax(axis=-1)
            )
            (drop_path): DropPath()
            (norm2): LayerNorm(normalized_shape=[180], epsilon=1e-05)
            (mlp): Mlp(
              (fc1): Linear(in_features=180, out_features=360, dtype=float32)
              (fc2): Linear(in_features=360, out_features=180, dtype=float32)
              (act): GELU(approximate=False)
              (dropout): Dropout(p=0.0, axis=None, mode=upscale_in_train)
            )
          )
          (4): SwinTransformerBlock(dim=180, input_resolution=(128, 128), num_heads=6, window_size=8, shift_size=0, mlp_ratio=2
            (norm1): LayerNorm(normalized_shape=[180], epsilon=1e-05)
            (attn): WindowAttention(dim=180, window_size=(8, 8), num_heads=6
              (qkv): Linear(in_features=180, out_features=540, dtype=float32)
              (attn_dropout): Dropout(p=0.0, axis=None, mode=upscale_in_train)
              (proj): Linear(in_features=180, out_features=180, dtype=float32)
              (proj_dropout): Dropout(p=0.0, axis=None, mode=upscale_in_train)
              (softmax): Softmax(axis=-1)
            )
            (drop_path): DropPath()
            (norm2): LayerNorm(normalized_shape=[180], epsilon=1e-05)
            (mlp): Mlp(
              (fc1): Linear(in_features=180, out_features=360, dtype=float32)
              (fc2): Linear(in_features=360, out_features=180, dtype=float32)
              (act): GELU(approximate=False)
              (dropout): Dropout(p=0.0, axis=None, mode=upscale_in_train)
            )
          )
          (5): SwinTransformerBlock(dim=180, input_resolution=(128, 128), num_heads=6, window_size=8, shift_size=4, mlp_ratio=2
            (norm1): LayerNorm(normalized_shape=[180], epsilon=1e-05)
            (attn): WindowAttention(dim=180, window_size=(8, 8), num_heads=6
              (qkv): Linear(in_features=180, out_features=540, dtype=float32)
              (attn_dropout): Dropout(p=0.0, axis=None, mode=upscale_in_train)
              (proj): Linear(in_features=180, out_features=180, dtype=float32)
              (proj_dropout): Dropout(p=0.0, axis=None, mode=upscale_in_train)
              (softmax): Softmax(axis=-1)
            )
            (drop_path): DropPath()
            (norm2): LayerNorm(normalized_shape=[180], epsilon=1e-05)
            (mlp): Mlp(
              (fc1): Linear(in_features=180, out_features=360, dtype=float32)
              (fc2): Linear(in_features=360, out_features=180, dtype=float32)
              (act): GELU(approximate=False)
              (dropout): Dropout(p=0.0, axis=None, mode=upscale_in_train)
            )
          )
        )
      )
      (conv): Conv2D(180, 180, kernel_size=[3, 3], padding=1, data_format=NCHW)
      (patch_embed): PatchEmbed()
      (patch_unembed): PatchUnEmbed()
    )
    (2): RSTB(
      (residual_group): BasicLayer(dim=180, input_resolution=(128, 128), depth=6
        (blocks): LayerList(
          (0): SwinTransformerBlock(dim=180, input_resolution=(128, 128), num_heads=6, window_size=8, shift_size=0, mlp_ratio=2
            (norm1): LayerNorm(normalized_shape=[180], epsilon=1e-05)
            (attn): WindowAttention(dim=180, window_size=(8, 8), num_heads=6
              (qkv): Linear(in_features=180, out_features=540, dtype=float32)
              (attn_dropout): Dropout(p=0.0, axis=None, mode=upscale_in_train)
              (proj): Linear(in_features=180, out_features=180, dtype=float32)
              (proj_dropout): Dropout(p=0.0, axis=None, mode=upscale_in_train)
              (softmax): Softmax(axis=-1)
            )
            (drop_path): DropPath()
            (norm2): LayerNorm(normalized_shape=[180], epsilon=1e-05)
            (mlp): Mlp(
              (fc1): Linear(in_features=180, out_features=360, dtype=float32)
              (fc2): Linear(in_features=360, out_features=180, dtype=float32)
              (act): GELU(approximate=False)
              (dropout): Dropout(p=0.0, axis=None, mode=upscale_in_train)
            )
          )
          (1): SwinTransformerBlock(dim=180, input_resolution=(128, 128), num_heads=6, window_size=8, shift_size=4, mlp_ratio=2
            (norm1): LayerNorm(normalized_shape=[180], epsilon=1e-05)
            (attn): WindowAttention(dim=180, window_size=(8, 8), num_heads=6
              (qkv): Linear(in_features=180, out_features=540, dtype=float32)
              (attn_dropout): Dropout(p=0.0, axis=None, mode=upscale_in_train)
              (proj): Linear(in_features=180, out_features=180, dtype=float32)
              (proj_dropout): Dropout(p=0.0, axis=None, mode=upscale_in_train)
              (softmax): Softmax(axis=-1)
            )
            (drop_path): DropPath()
            (norm2): LayerNorm(normalized_shape=[180], epsilon=1e-05)
            (mlp): Mlp(
              (fc1): Linear(in_features=180, out_features=360, dtype=float32)
              (fc2): Linear(in_features=360, out_features=180, dtype=float32)
              (act): GELU(approximate=False)
              (dropout): Dropout(p=0.0, axis=None, mode=upscale_in_train)
            )
          )
          (2): SwinTransformerBlock(dim=180, input_resolution=(128, 128), num_heads=6, window_size=8, shift_size=0, mlp_ratio=2
            (norm1): LayerNorm(normalized_shape=[180], epsilon=1e-05)
            (attn): WindowAttention(dim=180, window_size=(8, 8), num_heads=6
              (qkv): Linear(in_features=180, out_features=540, dtype=float32)
              (attn_dropout): Dropout(p=0.0, axis=None, mode=upscale_in_train)
              (proj): Linear(in_features=180, out_features=180, dtype=float32)
              (proj_dropout): Dropout(p=0.0, axis=None, mode=upscale_in_train)
              (softmax): Softmax(axis=-1)
            )
            (drop_path): DropPath()
            (norm2): LayerNorm(normalized_shape=[180], epsilon=1e-05)
            (mlp): Mlp(
              (fc1): Linear(in_features=180, out_features=360, dtype=float32)
              (fc2): Linear(in_features=360, out_features=180, dtype=float32)
              (act): GELU(approximate=False)
              (dropout): Dropout(p=0.0, axis=None, mode=upscale_in_train)
            )
          )
          (3): SwinTransformerBlock(dim=180, input_resolution=(128, 128), num_heads=6, window_size=8, shift_size=4, mlp_ratio=2
            (norm1): LayerNorm(normalized_shape=[180], epsilon=1e-05)
            (attn): WindowAttention(dim=180, window_size=(8, 8), num_heads=6
              (qkv): Linear(in_features=180, out_features=540, dtype=float32)
              (attn_dropout): Dropout(p=0.0, axis=None, mode=upscale_in_train)
              (proj): Linear(in_features=180, out_features=180, dtype=float32)
              (proj_dropout): Dropout(p=0.0, axis=None, mode=upscale_in_train)
              (softmax): Softmax(axis=-1)
            )
            (drop_path): DropPath()
            (norm2): LayerNorm(normalized_shape=[180], epsilon=1e-05)
            (mlp): Mlp(
              (fc1): Linear(in_features=180, out_features=360, dtype=float32)
              (fc2): Linear(in_features=360, out_features=180, dtype=float32)
              (act): GELU(approximate=False)
              (dropout): Dropout(p=0.0, axis=None, mode=upscale_in_train)
            )
          )
          (4): SwinTransformerBlock(dim=180, input_resolution=(128, 128), num_heads=6, window_size=8, shift_size=0, mlp_ratio=2
            (norm1): LayerNorm(normalized_shape=[180], epsilon=1e-05)
            (attn): WindowAttention(dim=180, window_size=(8, 8), num_heads=6
              (qkv): Linear(in_features=180, out_features=540, dtype=float32)
              (attn_dropout): Dropout(p=0.0, axis=None, mode=upscale_in_train)
              (proj): Linear(in_features=180, out_features=180, dtype=float32)
              (proj_dropout): Dropout(p=0.0, axis=None, mode=upscale_in_train)
              (softmax): Softmax(axis=-1)
            )
            (drop_path): DropPath()
            (norm2): LayerNorm(normalized_shape=[180], epsilon=1e-05)
            (mlp): Mlp(
              (fc1): Linear(in_features=180, out_features=360, dtype=float32)
              (fc2): Linear(in_features=360, out_features=180, dtype=float32)
              (act): GELU(approximate=False)
              (dropout): Dropout(p=0.0, axis=None, mode=upscale_in_train)
            )
          )
          (5): SwinTransformerBlock(dim=180, input_resolution=(128, 128), num_heads=6, window_size=8, shift_size=4, mlp_ratio=2
            (norm1): LayerNorm(normalized_shape=[180], epsilon=1e-05)
            (attn): WindowAttention(dim=180, window_size=(8, 8), num_heads=6
              (qkv): Linear(in_features=180, out_features=540, dtype=float32)
              (attn_dropout): Dropout(p=0.0, axis=None, mode=upscale_in_train)
              (proj): Linear(in_features=180, out_features=180, dtype=float32)
              (proj_dropout): Dropout(p=0.0, axis=None, mode=upscale_in_train)
              (softmax): Softmax(axis=-1)
            )
            (drop_path): DropPath()
            (norm2): LayerNorm(normalized_shape=[180], epsilon=1e-05)
            (mlp): Mlp(
              (fc1): Linear(in_features=180, out_features=360, dtype=float32)
              (fc2): Linear(in_features=360, out_features=180, dtype=float32)
              (act): GELU(approximate=False)
              (dropout): Dropout(p=0.0, axis=None, mode=upscale_in_train)
            )
          )
        )
      )
      (conv): Conv2D(180, 180, kernel_size=[3, 3], padding=1, data_format=NCHW)
      (patch_embed): PatchEmbed()
      (patch_unembed): PatchUnEmbed()
    )
    (3): RSTB(
      (residual_group): BasicLayer(dim=180, input_resolution=(128, 128), depth=6
        (blocks): LayerList(
          (0): SwinTransformerBlock(dim=180, input_resolution=(128, 128), num_heads=6, window_size=8, shift_size=0, mlp_ratio=2
            (norm1): LayerNorm(normalized_shape=[180], epsilon=1e-05)
            (attn): WindowAttention(dim=180, window_size=(8, 8), num_heads=6
              (qkv): Linear(in_features=180, out_features=540, dtype=float32)
              (attn_dropout): Dropout(p=0.0, axis=None, mode=upscale_in_train)
              (proj): Linear(in_features=180, out_features=180, dtype=float32)
              (proj_dropout): Dropout(p=0.0, axis=None, mode=upscale_in_train)
              (softmax): Softmax(axis=-1)
            )
            (drop_path): DropPath()
            (norm2): LayerNorm(normalized_shape=[180], epsilon=1e-05)
            (mlp): Mlp(
              (fc1): Linear(in_features=180, out_features=360, dtype=float32)
              (fc2): Linear(in_features=360, out_features=180, dtype=float32)
              (act): GELU(approximate=False)
              (dropout): Dropout(p=0.0, axis=None, mode=upscale_in_train)
            )
          )
          (1): SwinTransformerBlock(dim=180, input_resolution=(128, 128), num_heads=6, window_size=8, shift_size=4, mlp_ratio=2
            (norm1): LayerNorm(normalized_shape=[180], epsilon=1e-05)
            (attn): WindowAttention(dim=180, window_size=(8, 8), num_heads=6
              (qkv): Linear(in_features=180, out_features=540, dtype=float32)
              (attn_dropout): Dropout(p=0.0, axis=None, mode=upscale_in_train)
              (proj): Linear(in_features=180, out_features=180, dtype=float32)
              (proj_dropout): Dropout(p=0.0, axis=None, mode=upscale_in_train)
              (softmax): Softmax(axis=-1)
            )
            (drop_path): DropPath()
            (norm2): LayerNorm(normalized_shape=[180], epsilon=1e-05)
            (mlp): Mlp(
              (fc1): Linear(in_features=180, out_features=360, dtype=float32)
              (fc2): Linear(in_features=360, out_features=180, dtype=float32)
              (act): GELU(approximate=False)
              (dropout): Dropout(p=0.0, axis=None, mode=upscale_in_train)
            )
          )
          (2): SwinTransformerBlock(dim=180, input_resolution=(128, 128), num_heads=6, window_size=8, shift_size=0, mlp_ratio=2
            (norm1): LayerNorm(normalized_shape=[180], epsilon=1e-05)
            (attn): WindowAttention(dim=180, window_size=(8, 8), num_heads=6
              (qkv): Linear(in_features=180, out_features=540, dtype=float32)
              (attn_dropout): Dropout(p=0.0, axis=None, mode=upscale_in_train)
              (proj): Linear(in_features=180, out_features=180, dtype=float32)
              (proj_dropout): Dropout(p=0.0, axis=None, mode=upscale_in_train)
              (softmax): Softmax(axis=-1)
            )
            (drop_path): DropPath()
            (norm2): LayerNorm(normalized_shape=[180], epsilon=1e-05)
            (mlp): Mlp(
              (fc1): Linear(in_features=180, out_features=360, dtype=float32)
              (fc2): Linear(in_features=360, out_features=180, dtype=float32)
              (act): GELU(approximate=False)
              (dropout): Dropout(p=0.0, axis=None, mode=upscale_in_train)
            )
          )
          (3): SwinTransformerBlock(dim=180, input_resolution=(128, 128), num_heads=6, window_size=8, shift_size=4, mlp_ratio=2
            (norm1): LayerNorm(normalized_shape=[180], epsilon=1e-05)
            (attn): WindowAttention(dim=180, window_size=(8, 8), num_heads=6
              (qkv): Linear(in_features=180, out_features=540, dtype=float32)
              (attn_dropout): Dropout(p=0.0, axis=None, mode=upscale_in_train)
              (proj): Linear(in_features=180, out_features=180, dtype=float32)
              (proj_dropout): Dropout(p=0.0, axis=None, mode=upscale_in_train)
              (softmax): Softmax(axis=-1)
            )
            (drop_path): DropPath()
            (norm2): LayerNorm(normalized_shape=[180], epsilon=1e-05)
            (mlp): Mlp(
              (fc1): Linear(in_features=180, out_features=360, dtype=float32)
              (fc2): Linear(in_features=360, out_features=180, dtype=float32)
              (act): GELU(approximate=False)
              (dropout): Dropout(p=0.0, axis=None, mode=upscale_in_train)
            )
          )
          (4): SwinTransformerBlock(dim=180, input_resolution=(128, 128), num_heads=6, window_size=8, shift_size=0, mlp_ratio=2
            (norm1): LayerNorm(normalized_shape=[180], epsilon=1e-05)
            (attn): WindowAttention(dim=180, window_size=(8, 8), num_heads=6
              (qkv): Linear(in_features=180, out_features=540, dtype=float32)
              (attn_dropout): Dropout(p=0.0, axis=None, mode=upscale_in_train)
              (proj): Linear(in_features=180, out_features=180, dtype=float32)
              (proj_dropout): Dropout(p=0.0, axis=None, mode=upscale_in_train)
              (softmax): Softmax(axis=-1)
            )
            (drop_path): DropPath()
            (norm2): LayerNorm(normalized_shape=[180], epsilon=1e-05)
            (mlp): Mlp(
              (fc1): Linear(in_features=180, out_features=360, dtype=float32)
              (fc2): Linear(in_features=360, out_features=180, dtype=float32)
              (act): GELU(approximate=False)
              (dropout): Dropout(p=0.0, axis=None, mode=upscale_in_train)
            )
          )
          (5): SwinTransformerBlock(dim=180, input_resolution=(128, 128), num_heads=6, window_size=8, shift_size=4, mlp_ratio=2
            (norm1): LayerNorm(normalized_shape=[180], epsilon=1e-05)
            (attn): WindowAttention(dim=180, window_size=(8, 8), num_heads=6
              (qkv): Linear(in_features=180, out_features=540, dtype=float32)
              (attn_dropout): Dropout(p=0.0, axis=None, mode=upscale_in_train)
              (proj): Linear(in_features=180, out_features=180, dtype=float32)
              (proj_dropout): Dropout(p=0.0, axis=None, mode=upscale_in_train)
              (softmax): Softmax(axis=-1)
            )
            (drop_path): DropPath()
            (norm2): LayerNorm(normalized_shape=[180], epsilon=1e-05)
            (mlp): Mlp(
              (fc1): Linear(in_features=180, out_features=360, dtype=float32)
              (fc2): Linear(in_features=360, out_features=180, dtype=float32)
              (act): GELU(approximate=False)
              (dropout): Dropout(p=0.0, axis=None, mode=upscale_in_train)
            )
          )
        )
      )
      (conv): Conv2D(180, 180, kernel_size=[3, 3], padding=1, data_format=NCHW)
      (patch_embed): PatchEmbed()
      (patch_unembed): PatchUnEmbed()
    )
    (4): RSTB(
      (residual_group): BasicLayer(dim=180, input_resolution=(128, 128), depth=6
        (blocks): LayerList(
          (0): SwinTransformerBlock(dim=180, input_resolution=(128, 128), num_heads=6, window_size=8, shift_size=0, mlp_ratio=2
            (norm1): LayerNorm(normalized_shape=[180], epsilon=1e-05)
            (attn): WindowAttention(dim=180, window_size=(8, 8), num_heads=6
              (qkv): Linear(in_features=180, out_features=540, dtype=float32)
              (attn_dropout): Dropout(p=0.0, axis=None, mode=upscale_in_train)
              (proj): Linear(in_features=180, out_features=180, dtype=float32)
              (proj_dropout): Dropout(p=0.0, axis=None, mode=upscale_in_train)
              (softmax): Softmax(axis=-1)
            )
            (drop_path): DropPath()
            (norm2): LayerNorm(normalized_shape=[180], epsilon=1e-05)
            (mlp): Mlp(
              (fc1): Linear(in_features=180, out_features=360, dtype=float32)
              (fc2): Linear(in_features=360, out_features=180, dtype=float32)
              (act): GELU(approximate=False)
              (dropout): Dropout(p=0.0, axis=None, mode=upscale_in_train)
            )
          )
          (1): SwinTransformerBlock(dim=180, input_resolution=(128, 128), num_heads=6, window_size=8, shift_size=4, mlp_ratio=2
            (norm1): LayerNorm(normalized_shape=[180], epsilon=1e-05)
            (attn): WindowAttention(dim=180, window_size=(8, 8), num_heads=6
              (qkv): Linear(in_features=180, out_features=540, dtype=float32)
              (attn_dropout): Dropout(p=0.0, axis=None, mode=upscale_in_train)
              (proj): Linear(in_features=180, out_features=180, dtype=float32)
              (proj_dropout): Dropout(p=0.0, axis=None, mode=upscale_in_train)
              (softmax): Softmax(axis=-1)
            )
            (drop_path): DropPath()
            (norm2): LayerNorm(normalized_shape=[180], epsilon=1e-05)
            (mlp): Mlp(
              (fc1): Linear(in_features=180, out_features=360, dtype=float32)
              (fc2): Linear(in_features=360, out_features=180, dtype=float32)
              (act): GELU(approximate=False)
              (dropout): Dropout(p=0.0, axis=None, mode=upscale_in_train)
            )
          )
          (2): SwinTransformerBlock(dim=180, input_resolution=(128, 128), num_heads=6, window_size=8, shift_size=0, mlp_ratio=2
            (norm1): LayerNorm(normalized_shape=[180], epsilon=1e-05)
            (attn): WindowAttention(dim=180, window_size=(8, 8), num_heads=6
              (qkv): Linear(in_features=180, out_features=540, dtype=float32)
              (attn_dropout): Dropout(p=0.0, axis=None, mode=upscale_in_train)
              (proj): Linear(in_features=180, out_features=180, dtype=float32)
              (proj_dropout): Dropout(p=0.0, axis=None, mode=upscale_in_train)
              (softmax): Softmax(axis=-1)
            )
            (drop_path): DropPath()
            (norm2): LayerNorm(normalized_shape=[180], epsilon=1e-05)
            (mlp): Mlp(
              (fc1): Linear(in_features=180, out_features=360, dtype=float32)
              (fc2): Linear(in_features=360, out_features=180, dtype=float32)
              (act): GELU(approximate=False)
              (dropout): Dropout(p=0.0, axis=None, mode=upscale_in_train)
            )
          )
          (3): SwinTransformerBlock(dim=180, input_resolution=(128, 128), num_heads=6, window_size=8, shift_size=4, mlp_ratio=2
            (norm1): LayerNorm(normalized_shape=[180], epsilon=1e-05)
            (attn): WindowAttention(dim=180, window_size=(8, 8), num_heads=6
              (qkv): Linear(in_features=180, out_features=540, dtype=float32)
              (attn_dropout): Dropout(p=0.0, axis=None, mode=upscale_in_train)
              (proj): Linear(in_features=180, out_features=180, dtype=float32)
              (proj_dropout): Dropout(p=0.0, axis=None, mode=upscale_in_train)
              (softmax): Softmax(axis=-1)
            )
            (drop_path): DropPath()
            (norm2): LayerNorm(normalized_shape=[180], epsilon=1e-05)
            (mlp): Mlp(
              (fc1): Linear(in_features=180, out_features=360, dtype=float32)
              (fc2): Linear(in_features=360, out_features=180, dtype=float32)
              (act): GELU(approximate=False)
              (dropout): Dropout(p=0.0, axis=None, mode=upscale_in_train)
            )
          )
          (4): SwinTransformerBlock(dim=180, input_resolution=(128, 128), num_heads=6, window_size=8, shift_size=0, mlp_ratio=2
            (norm1): LayerNorm(normalized_shape=[180], epsilon=1e-05)
            (attn): WindowAttention(dim=180, window_size=(8, 8), num_heads=6
              (qkv): Linear(in_features=180, out_features=540, dtype=float32)
              (attn_dropout): Dropout(p=0.0, axis=None, mode=upscale_in_train)
              (proj): Linear(in_features=180, out_features=180, dtype=float32)
              (proj_dropout): Dropout(p=0.0, axis=None, mode=upscale_in_train)
              (softmax): Softmax(axis=-1)
            )
            (drop_path): DropPath()
            (norm2): LayerNorm(normalized_shape=[180], epsilon=1e-05)
            (mlp): Mlp(
              (fc1): Linear(in_features=180, out_features=360, dtype=float32)
              (fc2): Linear(in_features=360, out_features=180, dtype=float32)
              (act): GELU(approximate=False)
              (dropout): Dropout(p=0.0, axis=None, mode=upscale_in_train)
            )
          )
          (5): SwinTransformerBlock(dim=180, input_resolution=(128, 128), num_heads=6, window_size=8, shift_size=4, mlp_ratio=2
            (norm1): LayerNorm(normalized_shape=[180], epsilon=1e-05)
            (attn): WindowAttention(dim=180, window_size=(8, 8), num_heads=6
              (qkv): Linear(in_features=180, out_features=540, dtype=float32)
              (attn_dropout): Dropout(p=0.0, axis=None, mode=upscale_in_train)
              (proj): Linear(in_features=180, out_features=180, dtype=float32)
              (proj_dropout): Dropout(p=0.0, axis=None, mode=upscale_in_train)
              (softmax): Softmax(axis=-1)
            )
            (drop_path): DropPath()
            (norm2): LayerNorm(normalized_shape=[180], epsilon=1e-05)
            (mlp): Mlp(
              (fc1): Linear(in_features=180, out_features=360, dtype=float32)
              (fc2): Linear(in_features=360, out_features=180, dtype=float32)
              (act): GELU(approximate=False)
              (dropout): Dropout(p=0.0, axis=None, mode=upscale_in_train)
            )
          )
        )
      )
      (conv): Conv2D(180, 180, kernel_size=[3, 3], padding=1, data_format=NCHW)
      (patch_embed): PatchEmbed()
      (patch_unembed): PatchUnEmbed()
    )
    (5): RSTB(
      (residual_group): BasicLayer(dim=180, input_resolution=(128, 128), depth=6
        (blocks): LayerList(
          (0): SwinTransformerBlock(dim=180, input_resolution=(128, 128), num_heads=6, window_size=8, shift_size=0, mlp_ratio=2
            (norm1): LayerNorm(normalized_shape=[180], epsilon=1e-05)
            (attn): WindowAttention(dim=180, window_size=(8, 8), num_heads=6
              (qkv): Linear(in_features=180, out_features=540, dtype=float32)
              (attn_dropout): Dropout(p=0.0, axis=None, mode=upscale_in_train)
              (proj): Linear(in_features=180, out_features=180, dtype=float32)
              (proj_dropout): Dropout(p=0.0, axis=None, mode=upscale_in_train)
              (softmax): Softmax(axis=-1)
            )
            (drop_path): DropPath()
            (norm2): LayerNorm(normalized_shape=[180], epsilon=1e-05)
            (mlp): Mlp(
              (fc1): Linear(in_features=180, out_features=360, dtype=float32)
              (fc2): Linear(in_features=360, out_features=180, dtype=float32)
              (act): GELU(approximate=False)
              (dropout): Dropout(p=0.0, axis=None, mode=upscale_in_train)
            )
          )
          (1): SwinTransformerBlock(dim=180, input_resolution=(128, 128), num_heads=6, window_size=8, shift_size=4, mlp_ratio=2
            (norm1): LayerNorm(normalized_shape=[180], epsilon=1e-05)
            (attn): WindowAttention(dim=180, window_size=(8, 8), num_heads=6
              (qkv): Linear(in_features=180, out_features=540, dtype=float32)
              (attn_dropout): Dropout(p=0.0, axis=None, mode=upscale_in_train)
              (proj): Linear(in_features=180, out_features=180, dtype=float32)
              (proj_dropout): Dropout(p=0.0, axis=None, mode=upscale_in_train)
              (softmax): Softmax(axis=-1)
            )
            (drop_path): DropPath()
            (norm2): LayerNorm(normalized_shape=[180], epsilon=1e-05)
            (mlp): Mlp(
              (fc1): Linear(in_features=180, out_features=360, dtype=float32)
              (fc2): Linear(in_features=360, out_features=180, dtype=float32)
              (act): GELU(approximate=False)
              (dropout): Dropout(p=0.0, axis=None, mode=upscale_in_train)
            )
          )
          (2): SwinTransformerBlock(dim=180, input_resolution=(128, 128), num_heads=6, window_size=8, shift_size=0, mlp_ratio=2
            (norm1): LayerNorm(normalized_shape=[180], epsilon=1e-05)
            (attn): WindowAttention(dim=180, window_size=(8, 8), num_heads=6
              (qkv): Linear(in_features=180, out_features=540, dtype=float32)
              (attn_dropout): Dropout(p=0.0, axis=None, mode=upscale_in_train)
              (proj): Linear(in_features=180, out_features=180, dtype=float32)
              (proj_dropout): Dropout(p=0.0, axis=None, mode=upscale_in_train)
              (softmax): Softmax(axis=-1)
            )
            (drop_path): DropPath()
            (norm2): LayerNorm(normalized_shape=[180], epsilon=1e-05)
            (mlp): Mlp(
              (fc1): Linear(in_features=180, out_features=360, dtype=float32)
              (fc2): Linear(in_features=360, out_features=180, dtype=float32)
              (act): GELU(approximate=False)
              (dropout): Dropout(p=0.0, axis=None, mode=upscale_in_train)
            )
          )
          (3): SwinTransformerBlock(dim=180, input_resolution=(128, 128), num_heads=6, window_size=8, shift_size=4, mlp_ratio=2
            (norm1): LayerNorm(normalized_shape=[180], epsilon=1e-05)
            (attn): WindowAttention(dim=180, window_size=(8, 8), num_heads=6
              (qkv): Linear(in_features=180, out_features=540, dtype=float32)
              (attn_dropout): Dropout(p=0.0, axis=None, mode=upscale_in_train)
              (proj): Linear(in_features=180, out_features=180, dtype=float32)
              (proj_dropout): Dropout(p=0.0, axis=None, mode=upscale_in_train)
              (softmax): Softmax(axis=-1)
            )
            (drop_path): DropPath()
            (norm2): LayerNorm(normalized_shape=[180], epsilon=1e-05)
            (mlp): Mlp(
              (fc1): Linear(in_features=180, out_features=360, dtype=float32)
              (fc2): Linear(in_features=360, out_features=180, dtype=float32)
              (act): GELU(approximate=False)
              (dropout): Dropout(p=0.0, axis=None, mode=upscale_in_train)
            )
          )
          (4): SwinTransformerBlock(dim=180, input_resolution=(128, 128), num_heads=6, window_size=8, shift_size=0, mlp_ratio=2
            (norm1): LayerNorm(normalized_shape=[180], epsilon=1e-05)
            (attn): WindowAttention(dim=180, window_size=(8, 8), num_heads=6
              (qkv): Linear(in_features=180, out_features=540, dtype=float32)
              (attn_dropout): Dropout(p=0.0, axis=None, mode=upscale_in_train)
              (proj): Linear(in_features=180, out_features=180, dtype=float32)
              (proj_dropout): Dropout(p=0.0, axis=None, mode=upscale_in_train)
              (softmax): Softmax(axis=-1)
            )
            (drop_path): DropPath()
            (norm2): LayerNorm(normalized_shape=[180], epsilon=1e-05)
            (mlp): Mlp(
              (fc1): Linear(in_features=180, out_features=360, dtype=float32)
              (fc2): Linear(in_features=360, out_features=180, dtype=float32)
              (act): GELU(approximate=False)
              (dropout): Dropout(p=0.0, axis=None, mode=upscale_in_train)
            )
          )
          (5): SwinTransformerBlock(dim=180, input_resolution=(128, 128), num_heads=6, window_size=8, shift_size=4, mlp_ratio=2
            (norm1): LayerNorm(normalized_shape=[180], epsilon=1e-05)
            (attn): WindowAttention(dim=180, window_size=(8, 8), num_heads=6
              (qkv): Linear(in_features=180, out_features=540, dtype=float32)
              (attn_dropout): Dropout(p=0.0, axis=None, mode=upscale_in_train)
              (proj): Linear(in_features=180, out_features=180, dtype=float32)
              (proj_dropout): Dropout(p=0.0, axis=None, mode=upscale_in_train)
              (softmax): Softmax(axis=-1)
            )
            (drop_path): DropPath()
            (norm2): LayerNorm(normalized_shape=[180], epsilon=1e-05)
            (mlp): Mlp(
              (fc1): Linear(in_features=180, out_features=360, dtype=float32)
              (fc2): Linear(in_features=360, out_features=180, dtype=float32)
              (act): GELU(approximate=False)
              (dropout): Dropout(p=0.0, axis=None, mode=upscale_in_train)
            )
          )
        )
      )
      (conv): Conv2D(180, 180, kernel_size=[3, 3], padding=1, data_format=NCHW)
      (patch_embed): PatchEmbed()
      (patch_unembed): PatchUnEmbed()
    )
  )
  (norm): LayerNorm(normalized_shape=[180], epsilon=1e-05)
  (conv_after_body): Conv2D(180, 180, kernel_size=[3, 3], padding=1, data_format=NCHW)
  (conv_last): Conv2D(180, 3, kernel_size=[3, 3], padding=1, data_format=NCHW)
)

22-09-02 11:12:14.464 : 
 |  mean  |  min   |  max   |  std   || shape               
 | -0.002 | -0.941 |  1.199 |  0.274 | (180, 3, 3, 3) || conv_first.weight
 |  0.000 |  0.000 |  0.000 |  0.000 | (180,) || conv_first.bias
…
